{"class_name": "Sequential", "keras_version": "2.2.4", "backend": "tensorflow", "config": {"name": "sequential_28", "layers": [{"class_name": "Dense", "config": {"use_bias": true, "activation": "relu", "activity_regularizer": null, "name": "dense_113", "bias_regularizer": null, "trainable": true, "bias_initializer": {"class_name": "Zeros", "config": {}}, "bias_constraint": null, "kernel_regularizer": null, "units": 256, "dtype": "float32", "batch_input_shape": [null, 26], "kernel_constraint": null, "kernel_initializer": {"class_name": "VarianceScaling", "config": {"distribution": "uniform", "seed": null, "scale": 1.0, "mode": "fan_avg"}}}}, {"class_name": "Dropout", "config": {"trainable": true, "name": "dropout_56", "noise_shape": null, "rate": 0.3, "seed": null}}, {"class_name": "Dense", "config": {"kernel_regularizer": null, "activation": "relu", "activity_regularizer": null, "name": "dense_114", "bias_regularizer": null, "bias_initializer": {"class_name": "Zeros", "config": {}}, "bias_constraint": null, "use_bias": true, "units": 128, "trainable": true, "kernel_constraint": null, "kernel_initializer": {"class_name": "VarianceScaling", "config": {"distribution": "uniform", "seed": null, "scale": 1.0, "mode": "fan_avg"}}}}, {"class_name": "Dropout", "config": {"trainable": true, "name": "dropout_57", "noise_shape": null, "rate": 0.3, "seed": null}}, {"class_name": "Dense", "config": {"kernel_regularizer": null, "activation": "relu", "activity_regularizer": null, "name": "dense_115", "bias_regularizer": null, "bias_initializer": {"class_name": "Zeros", "config": {}}, "bias_constraint": null, "use_bias": true, "units": 64, "trainable": true, "kernel_constraint": null, "kernel_initializer": {"class_name": "VarianceScaling", "config": {"distribution": "uniform", "seed": null, "scale": 1.0, "mode": "fan_avg"}}}}, {"class_name": "Dense", "config": {"kernel_regularizer": null, "activation": "softmax", "activity_regularizer": null, "name": "dense_116", "bias_regularizer": null, "bias_initializer": {"class_name": "Zeros", "config": {}}, "bias_constraint": null, "use_bias": true, "units": 10, "trainable": true, "kernel_constraint": null, "kernel_initializer": {"class_name": "VarianceScaling", "config": {"distribution": "uniform", "seed": null, "scale": 1.0, "mode": "fan_avg"}}}}]}}